dqn_agent4.pth (torch, 30321 bytes, 4 tensors)

fc1.weight f4 [128, 50]
0	0x3e0845b5	0.13307841
1	0xbdfb9c2d	-0.122856475
2	0xbe88bcb9	-0.26706484
3	0x3d1ffb4d	0.03905802
4	0xbe1983a4	-0.14991623
5	0x3d1b4f98	0.037917703
6	0xbcf07a08	-0.029355064
7	0x3b44af44	0.0030011693
8	0xbdfbd59d	-0.12296603
9	0x3d6ef20c	0.058336303
10	0x3d9d6c56	0.07686679
11	0xbd76906f	-0.060196336
12	0x3ca3c851	0.01999298
13	0xbd9ea2cc	-0.07745895
14	0x3e01f516	0.12691149
15	0xbd206306	-0.039156936
16	0xbd20453f	-0.03912854
17	0x3da031c7	0.07821994
18	0x3c9f6b57	0.019460363
19	0x3c51c5f3	0.012803542
20	0xbd498432	-0.049198337
21	0xbdcad144	-0.099031955
22	0xbe7f92c6	-0.24958333
23	0xbe3e8fe5	-0.18609579
24	0xbdb84858	-0.089981735
25	0x3cfea5b0	0.031084865
26	0x3dc1ffa7	0.0947259
27	0xbe18f91a	-0.14938775
28	0xbd47441d	-0.048648942
29	0x3dfe4fef	0.1241759
30	0x3d548218	0.05188188
31	0x3d5d3188	0.054002315
32	0xbe0a3d47	-0.13499938
33	0x3cf8c193	0.03036574
34	0xbb8fe6a9	-0.0043915105
35	0x3dc0511c	0.093904704
36	0x3cfc982d	0.030834282
37	0xbd054328	-0.03253475
38	0xbdbd135b	-0.092322074
39	0xbc172a99	-0.009226465
40	0xbd4ca21e	-0.049959294
41	0xbd3420cc	-0.04397659
42	0xbad466f8	-0.0016205003
43	0x3c33b64e	0.010968758
44	0xbe8e346d	-0.27774373
45	0x3da89f72	0.08233537
46	0x3dd07465	0.101784505
47	0x3d98072c	0.07423243
48	0xbcddc15c	-0.02706974
49	0xbe87a4cb	-0.26492915
50	0x3ccfa0e0	0.025345266
51	0x3eb2d452	0.34927613
52	0xbe1a6782	-0.15078548
53	0x3e6a9111	0.22906901
54	0xbf3ecaed	-0.7452839
55	0xbdc5c7df	-0.09657263
56	0x3d955469	0.072914906
57	0x3ba058e0	0.004893407
58	0xbd2015c7	-0.03908327
59	0xbead7fad	-0.3388647
60	0x3e053ae1	0.13010742
61	0xbd363ca2	-0.044491418
62	0xbc6d89b2	-0.014498161
63	0xbe0dcfa4	-0.1384874
64	0xbe4b3c72	-0.19847277
65	0xbe05e793	-0.1307662
66	0x3de009f2	0.10939397
67	0xbc742f45	-0.014903848
68	0x3c3c183f	0.01148039
69	0xbd6869d7	-0.05674156
70	0xbe03f4c5	-0.12886341
71	0xbcc7767c	-0.02434849
72	0x3bb7d3e7	0.0056099775
73	0x3d91373c	0.07090613
74	0x3bf4a0fa	0.007465479
75	0x3da99820	0.08280969
76	0xbe1e1a10	-0.1543963
77	0x3cd610e9	0.02613111
78	0x3d4a7a99	0.049433324
79	0xbba0be1b	-0.004905475
80	0xbdebb2a3	-0.115086816
81	0xbd96087d	-0.07325838
82	0x3dce6744	0.1007829
83	0x3db13793	0.08653178
84	0xbdbcdd55	-0.09221903
85	0xbb5761c0	-0.003286466
86	0xbde3cc34	-0.11122933
87	0x3c29ca40	0.010363162
88	0x3e8850fb	0.26624283
89	0xbe155d22	-0.14586309
90	0xbd1a8d8c	-0.037732646
91	0x3dbd56c2	0.09245063
92	0xbcf86a4c	-0.030324124
93	0x3d224a9d	0.039621938
94	0xbe2b4d03	-0.16728596
95	0xbde523ba	-0.11188455
96	0x3db8d7b9	0.09025521
97	0xbdd3165c	-0.10306999
98	0x3d62408e	0.055237345
99	0xbdf75b5c	-0.12077972
100	0xbd0c3d8c	-0.034238383
101	0x3f35d783	0.7103197
102	0x3e69d5a4	0.22835404
103	0x3e3ad565	0.18245466
104	0xbf8e6fb9	-1.1127845
105	0x3c78d520	0.015187532
106	0x3e1e1076	0.15435967
107	0x3e1a3763	0.15060191
108	0x3e3592db	0.17731802
109	0xbef64654	-0.4810053
110	0xbc969330	-0.018380731
111	0x3c854236	0.016266923
112	0x3d9b6230	0.07587087
113	0x3ea754e8	0.32681966
114	0xbeddaa0c	-0.43293798
115	0xbdf596c2	-0.119916454
116	0xbc1ea3fb	-0.009682651
117	0x3d13f9e5	0.03612699
118	0x3eb7508b	0.35803637
119	0xbee54510	-0.44779253
120	0xbe0be23b	-0.13660519
121	0x3e0b93e9	0.13630642
122	0xbe1f785f	-0.15573262
123	0x3e8d7c21	0.27633765
124	0xbefca827	-0.4934704
125	0xbcd064a8	-0.025438622
126	0x3d112a7f	0.035440918
127	0xbd3ca2a5	-0.046053547
128	0x3ee29722	0.4425593
129	0xbea3fee1	-0.32030395
130	0x3d33527c	0.043779835
131	0x3d2b126e	0.041765623
132	0xbdc50f53	-0.096220635
133	0x3eb61bf0	0.3556819
134	0xbe9a05b0	-0.30082464
135	0x3dcaf076	0.099091455
136	0xbb101763	-0.0021986596
137	0xbe0f78f9	-0.14010991
138	0x3e39a3ab	0.1812884
139	0xbe90e9e6	-0.2830345
140	0xbc556940	-0.013025582
141	0xbd28c513	-0.04120357
142	0x3d8008e8	0.06251699
143	0x3da1c1cd	0.07898293
144	0xbda66565	-0.08124808
145	0x3b9ef400	0.0048508644
146	0x3e0be179	0.1366023
147	0xbdf50a50	-0.119648576
148	0xbc9023cc	-0.017595194
149	0xbe2810c9	-0.16412653
150	0xbe1048ae	-0.14090225
151	0xbc61782c	-0.013761561
152	0xbd624347	-0.055239942
153	0x3d955188	0.072909415
154	0xbcfa864b	-0.030581614
155	0xbda97f7a	-0.08276267
156	0x3d68d869	0.05684701
157	0xbdbe03c9	-0.09278066
158	0xbd780e69	-0.060560618
159	0x3d96a435	0.07355539
160	0xbc4fe130	-0.012687966
161	0x3cdb422a	0.026764948
162	0xbe3399c6	-0.17539129
163	0xbd99a57f	-0.07502269
164	0x3df061c3	0.117373966
165	0xbc2ca9c0	-0.010538518
166	0xbe0c0757	-0.13674675
167	0x3d293869	0.041313563
168	0x3b5d4db5	0.003376824
169	0xbda2aed0	-0.07943499
170	0xbcdd0bfc	-0.026983254
171	0xbddfaa72	-0.10921182
172	0xbc4d7e74	-0.012542356
173	0xbd9d1d14	-0.07671562
174	0xbe90d22d	-0.2828535
175	0x3d8cacb6	0.068688795
176	0x3d2c770f	0.04210573
177	0x3caab2ec	0.02083727
178	0xbe12d9e5	-0.14340933
179	0xbcd6d873	-0.026226258
180	0xbd4afcf6	-0.04955765
181	0xbcc1e3ed	-0.023668254
182	0xbd8a3932	-0.067491904
183	0xbe3e3cf9	-0.18577947
184	0xbe30a6fd	-0.17251201
185	0x3d9a8cfa	0.075464204
186	0xbd407251	-0.04698402
187	0x3ce9faf5	0.028562048
188	0x3d74e24f	0.059786137
189	0x3d53a93b	0.051675063
190	0xbd930849	-0.07179315
191	0x3ce5a995	0.028034965
192	0x3ccbb033	0.024864292
193	0xbdac7554	-0.08420816
194	0xbe23d2e0	-0.15998411
195	0x3d9a4018	0.07531756
196	0x3caedab8	0.021344528
197	0xbd8b619d	-0.06805728
198	0x3dca88cb	0.098893724
199	0xbdafd10e	-0.08584796
200	0x3db8c080	0.090210915
201	0xbcdcbe53	-0.026946222
202	0xbe450c1e	-0.19242904
203	0x3dcf7633	0.101299666
204	0xbe3ea1ed	-0.18616457
205	0x3e0ae1e5	0.13562734
206	0x3de8eca2	0.11373259
207	0x3cbdd841	0.023174407
208	0x3e0ea7ea	0.13931242
209	0x3b52e47e	0.003217965
210	0xbd203a22	-0.03911794
211	0x3dd353b0	0.103186965
212	0xbe4b0638	-0.19826591
213	0xbe00de12	-0.12584713
214	0xbd90836b	-0.07056316
215	0xbdcb3ef8	-0.0992412
216	0x3d02086f	0.031746324
217	0xbd876d3a	-0.0661263
218	0x3c0d6f97	0.008632562
219	0xbda62c8d	-0.08113966
220	0xbd52f596	-0.05150374
221	0x3dd3f1e2	0.1034887
222	0xbd4cfd18	-0.050046057
223	0xbe498f0b	-0.19683473
224	0xbd8e73c8	-0.06955677
225	0xbd97d831	-0.07414282
226	0x3ce6e07f	0.02818322
227	0x3d02addb	0.031904083
228	0xbd8e7825	-0.069565095
229	0xbdeee59c	-0.11664888
230	0xbe0f3a16	-0.13987002
231	0xbe286e5f	-0.16448353
232	0xbdce957a	-0.10087104
233	0x3dd83383	0.105567
234	0xbe1d0eed	-0.15337725
235	0x3d76bafc	0.060236916
236	0x3d17a37c	0.037021145
237	0xbd1f50b5	-0.038895328
238	0x3df70c3f	0.12062883
239	0xbd2257ca	-0.039634503
240	0x3c2548a0	0.010088116
241	0xbd36ab35	-0.04459687
242	0xbd28fd61	-0.041257266
243	0xbe0aecd9	-0.13566913
244	0xbe19827a	-0.14991179
245	0xbdec80a9	-0.115479775
246	0xbe4513bb	-0.19245808
247	0xbd842597	-0.06452482
248	0x3cc0c64b	0.023532053
249	0xbe0ed16d	-0.13947077
250	0x3dbf0792	0.09327616
251	0x3de2b2e6	0.110692784
252	0xbe66ae44	-0.22527415
253	0x3da75a9c	0.08171579
254	0xbeaaee3f	-0.33384892
255	0xbdd70fa8	-0.10501033

fc1.bias f4 [128]
0	0xb93170a3	-0.00016921996
1	0xbd2b157f	-0.041768547
2	0x3ea3432e	0.31887192
3	0xbab4198a	-0.0013740521
4	0xb86552e1	-5.467504e-05
5	0x3f5c0326	0.85942304
6	0x3fc37d02	1.5272524
7	0xba515cd6	-0.0007986551
8	0xb9b005d0	-0.00033573667
9	0x3f15c3f4	0.58502126
10	0xbd89c5cc	-0.0672718
11	0x3fa198fa	1.262481
12	0xba848d6e	-0.001011295
13	0xbafab039	-0.0019126005
14	0xba78e5c2	-0.0009494686
15	0x3e7c8f9b	0.24664156
16	0xbe92a044	-0.28637898
17	0xbaa9c85d	-0.001295339
18	0xb98c0859	-0.000267091
19	0x3ea7a608	0.3274386
20	0x3f92dd67	1.1473817
21	0x3fe2c489	1.7716228
22	0xbcf832b0	-0.030297607
23	0xbf59e56d	-0.851157
24	0xbc37c518	-0.011216424
25	0xb8f6350c	-0.00011740075
26	0xba37bbde	-0.00070088904
27	0xbf04f301	-0.51933295
28	0x3efa4a1d	0.4888467
29	0xba064454	-0.0005121876
30	0xba52e16d	-0.00080444553
31	0xbd8c96ad	-0.068646766
32	0xbc08fdb0	-0.008361265
33	0xbab908ff	-0.0014117061
34	0xb9436852	-0.00018635512
35	0xbbfe5755	-0.0077618756
36	0xba0e67f1	-0.00054323586
37	0x3ee62eac	0.44957483
38	0x3e63d53b	0.2224931
39	0xbdd8a7ca	-0.10578878
40	0xbef31e51	-0.47484067
41	0x3ec9f603	0.39445505
42	0xba35de6c	-0.00069377455
43	0x3ed9e085	0.42554107
44	0x3f8cf4ce	1.1012208
45	0xbe7d5be5	-0.24742086
46	0x3f826fbf	1.0190352
47	0xbd79b286	-0.06096127
48	0xbaa57b28	-0.0012625204
49	0xbf2d9122	-0.6779958
50	0x3e80ce9d	0.25157633
51	0xbd302de0	-0.0430125
52	0xbb115d67	-0.0022180916
53	0x3f952ff5	1.165526
54	0x3f529c7d	0.8227003
55	0x3f91e54e	1.1398103
56	0xbf338954	-0.7013142
57	0xb9f4b599	-0.00046674607
58	0xbb9b74f3	-0.004744166
59	0xbb79c640	-0.003811255
60	0xbb0a6e7c	-0.0021122983
61	0xba5efbd4	-0.0008506153
62	0x3f122b94	0.57097745
63	0xbf53061e	-0.8243121
64	0xbe3c9631	-0.18416668
65	0x3f464b8d	0.7745903
66	0xbf5cb929	-0.8622003
67	0x3f674f6b	0.9035556
68	0xbccdc8ea	-0.025120217
69	0xbb16fca2	-0.0023038764
70	0xbaa68570	-0.0012704562
71	0xbb3ed4d8	-0.0029118564
72	0x3f936573	1.1515335
73	0xbf55fc48	-0.83588076
74	0x3f2bc5da	0.6709877
75	0xbb20e23c	-0.0024548909
76	0xba213039	-0.00061488483
77	0x3f146d3c	0.5797918
78	0x3eaecf75	0.34142652
79	0x3fa0e061	1.2568475
80	0x3f019618	0.5061965
81	0x3f329f03	0.6977388
82	0x3f2ff559	0.68733746
83	0xbabf8c14	-0.001461389
84	0x3ef7bd09	0.4838641
85	0x3f81fefc	1.015594
86	0x3f8f4539	1.1193
87	0x3f8d5dc9	1.1044246
88	0xbd9fa8d3	-0.077958725
89	0xbb312370	-0.002702918
90	0x3fa849cd	1.3147522
91	0xbc056eab	-0.008144061
92	0xba3e2f2d	-0.00072549545
93	0xb9c382d6	-0.0003729078
94	0xbad3dde1	-0.0016164148
95	0x3f3573b5	0.7087968
96	0x3f61a853	0.8814747
97	0xbf1e285b	-0.6178033
98	0xbdce98a6	-0.10087709
99	0x3e97450b	0.29544863
100	0x3ff9efd6	1.9526317
101	0xba80cfc1	-0.000982754
102	0x3f687ab2	0.9081222
103	0xb9ed92b8	-0.00045313477
104	0xbef482ac	-0.47755945
105	0xbc85ad58	-0.016318008
106	0x3f1a4aed	0.6027058
107	0xbcb8a9bc	-0.022541873
108	0xbaa2ccdb	-0.0012420671
109	0x3f49fbda	0.7889992
110	0xba830cc6	-0.0009998314
111	0x3f1f0b00	0.6212616
112	0x3e79e21f	0.24402665
113	0x3f568c2e	0.8380765
114	0xb982a1f8	-0.00024916208
115	0x3f40d488	0.75324297
116	0xba3224c2	-0.00067956385
117	0xbef15ced	-0.4714121
118	0xba74bf58	-0.0009336374
119	0xba2b3631	-0.00065312075
120	0xbf55be1f	-0.83493227
121	0xba9897b0	-0.0011641886
122	0xbdf6e125	-0.12054662
123	0xba904593	-0.0011007063
124	0xbdaf2952	-0.08552803
125	0xbe8cf34d	-0.27529374
126	0x3efac39b	0.4897736
127	0xbb7ccb6f	-0.0038573404

fc2.weight f4 [5, 128]
0	0xbbb2c7fc	-0.005455969
1	0xb614018d	-2.2054621e-06
2	0xbd855bad	-0.065116264
3	0x3cc3a5de	0.023882803
4	0xbb4a9ddf	-0.0030916852
5	0x3ddde52f	0.10834729
6	0x3e7bef31	0.24602963
7	0x3baceb47	0.0052770707
8	0x3b1b0ba7	0.0023658068
9	0xbcd34419	-0.025789307
10	0xbcdcd952	-0.026959095
11	0xbe193830	-0.1496284
12	0xbb6b051d	-0.0035861202
13	0xbc5743ac	-0.013138693
14	0x3a64d941	0.0008729883
15	0xbd13562c	-0.03597085
16	0x3c47518f	0.012165441
17	0xbc3e9dfe	-0.011634348
18	0x39910560	0.0002766056
19	0x3d773782	0.06035567
20	0xbe161cda	-0.14659443
21	0xbe8a033b	-0.2695559
22	0xbb75a326	-0.0037481277
23	0x3c22baa9	0.009932199
24	0x3c97dd63	0.018538183
25	0xb9e132e8	-0.00042953272
26	0x3a17495b	0.00057711237
27	0xbd1c4353	-0.038150143
28	0x3d9e6412	0.07733931
29	0xba8b975e	-0.0010649969
30	0xbbb76227	-0.0055964175
31	0x3ca94a23	0.020665234
32	0xbd56e6d4	-0.05246623
33	0x3b8b1cb0	0.004245363
34	0x3c5ab516	0.013348838
35	0x3c1f2b8e	0.009714974
36	0x3a150ce1	0.0005685818
37	0xbd27befc	-0.04095362
38	0x3d1baf47	0.038008954
39	0x3cf32784	0.029681928
40	0x3cce7f4e	0.025207188
41	0xbcfba7f0	-0.030719727
42	0x3b315b9d	0.0027062662
43	0x3d9c4b9c	0.07631609
44	0xbdf18706	-0.11793332
45	0xbcb971fe	-0.022637364
46	0xbdc36ecc	-0.09542617
47	0xbd6f2ab4	-0.058390334
48	0x3b5221ab	0.0032063525
49	0xb9a5fb20	-0.00031658355
50	0x3c9890d8	0.018623754
51	0xbbd5c629	-0.0065238667
52	0x3b70fe50	0.0036772676
53	0x3e0dac65	0.13835295
54	0x3eb46d2b	0.3523954
55	0x3f1f0b34	0.6212647
56	0x3c66ab8d	0.014078987
57	0x3932fab8	0.00017068803
58	0xba606dad	-0.0008561265
59	0xbb68a2be	-0.0035497393
60	0x3c900e76	0.01758502
61	0xb862bd30	-5.4058793e-05
62	0x3db5d5c0	0.0887866
63	0xbcdf5fa2	-0.027267281
64	0xbcba04a9	-0.0227073
65	0xbe144f84	-0.14483458
66	0xbd2549bd	-0.040353525
67	0xbe0366be	-0.12832162
68	0xbd748a16	-0.059702
69	0xbb8a70ec	-0.004224887
70	0xbab3ecf5	-0.0013727235
71	0xba2223c1	-0.00061851373
72	0x3f1735f8	0.59066725
73	0xbd064998	-0.03278503
74	0xbe0b01fe	-0.13574979
75	0x3ab9b36b	0.0014167851
76	0xba43e41a	-0.00074726494
77	0x3e9a216b	0.3010362
78	0x3d389302	0.045062073
79	0xbdda89f7	-0.10670846
80	0x3d867994	0.06566158
81	0xbcf80d42	-0.03027976
82	0x3dc59fdf	0.096496336
83	0xba42bdea	-0.0007428812
84	0x3e1d5df0	0.15367866
85	0xbcca8303	-0.024720674
86	0x3e9c6b40	0.30550575
87	0xbddb6ec7	-0.107144885
88	0xbd5f559d	-0.054525007
89	0x39c420d3	0.0003740849
90	0xbe242f52	-0.16033676
91	0x3a8ac1d2	0.0010586327
92	0x3a72ec17	0.00092667475
93	0xba8bf914	-0.001067909
94	0xba0a4f28	-0.00052760774
95	0xbdefa306	-0.11701016
96	0xbd14272c	-0.03617017
97	0xbdc5692d	-0.09639201
98	0xbdac32e3	-0.08408143
99	0x3d24a844	0.040199533
100	0xbedd9e2f	-0.43284747
101	0xbaafeed8	-0.0013422621
102	0xbe0dec44	-0.1385966
103	0x3be021e6	0.0068399785
104	0xbdaf2b9b	-0.08553239
105	0x3a8fe9c0	0.0010979697
106	0xbd093fea	-0.03350822
107	0xbce7b614	-0.028285064
108	0x3997e2b7	0.0002896988
109	0x3d6e6a38	0.058206767
110	0x37b8b456	2.2018485e-05
111	0x3b8927cf	0.0041856538
112	0xbe02f5e8	-0.12789118
113	0x3d28dcb0	0.04122609
114	0x3be83627	0.0070865336
115	0xbdc3d53c	-0.095621556
116	0xbac801a1	-0.0015259275
117	0xba90486c	-0.0011007912
118	0x3a50c417	0.000796379
119	0xba07297c	-0.0005156023
120	0xbcfce714	-0.030871905
121	0x3b6cd271	0.0036136175
122	0x3d23aad2	0.03995783
123	0x3a198e9b	0.00058577367
124	0xbd304588	-0.04303506
125	0x3d1c2060	0.038116813
126	0xbcad5e32	-0.02116308
127	0xbbddf247	-0.0067732665
128	0x3b8aaca2	0.004232005
129	0xbb93fb1c	-0.0045160186
130	0xbd7c4545	-0.061589498
131	0xbc4655d8	-0.012105428
132	0x3c174269	0.009232142
133	0x3d7628e9	0.06009761
134	0x3e5f2a4a	0.21793476
135	0x3cb2c135	0.021820644
136	0xba137c81	-0.00056261575
137	0xbda6f700	-0.0815258
138	0x3d8ae041	0.06781054
139	0xbdf71b6f	-0.120657794
140	0xbd03443c	-0.032047495
141	0xbd9db0e5	-0.076997556
142	0xbb8f6662	-0.0043762187
143	0xbcf8f448	-0.03038992
144	0x3d188a1d	0.03724109
145	0xbd0586e6	-0.032599352
146	0x3c3df057	0.011592946
147	0x3d26972b	0.04067151
148	0xbe09a9c9	-0.13443674
149	0xbe874ab4	-0.2642418
150	0x3c116345	0.008873765
151	0xbc205745	-0.009786432
152	0xbc95a4b4	-0.018267013
153	0x3c9c8c0c	0.019109748
154	0x3c62198c	0.013800036
155	0x3c9c1ac8	0.019055739
156	0x3daab487	0.08335214
157	0x3a526763	0.000802627
158	0x3bff2523	0.0077864095
159	0x3d6a04da	0.057133533
160	0xbd4dff2f	-0.05029219
161	0x3b32955b	0.0027249667
162	0x3d3ec400	0.04657364
163	0xbc0d9db5	-0.008643557
164	0xbc015329	-0.007893362
165	0x3d3f4512	0.04669673
166	0xbc7ffeb8	-0.0156246945
167	0xbd25cf0e	-0.040480666
168	0xbb80768e	-0.003920383
169	0xbd03a334	-0.032138065
170	0x3c9ac29a	0.018891621
171	0x3dbc8f3d	0.09207008
172	0x3e0c06dd	0.13674493
173	0xbd360c51	-0.04444534
174	0xbdcc32d9	-0.09970636
175	0xbd521b69	-0.05129567
176	0xbc3f55a2	-0.011678131
177	0xbd04b9bd	-0.032403696
178	0x3c9a26e2	0.018817369
179	0xbbec6168	-0.00721376
180	0x3c4cc377	0.012497774
181	0x3eeec588	0.4663508
182	0x3edf9833	0.43670806
183	0x3ede7dc0	0.43455315
184	0xbcde774b	-0.027156493
185	0x3bc18f2c	0.00590696
186	0x3ad99f9f	0.0016603357
187	0xbb715db1	-0.0036829526
188	0xbd80b1c3	-0.06283905
189	0xba4b728e	-0.00077609054
190	0x3c69d5a8	0.014272131
191	0xbcf59a9d	-0.029980952
192	0x3a163ff7	0.00057315774
193	0xbe1dd743	-0.15414147
194	0x3ae2e26c	0.0017309911
195	0xbd47bef7	-0.048766103
196	0xbc884c02	-0.016637806
197	0x3ab40198	0.0013733385
198	0x3b51cd57	0.0032013261
199	0xba910796	-0.0011064883
200	0x3ec6276e	0.38701957
201	0xbc56b1b0	-0.013103887
202	0xbe21289f	-0.15738152
203	0xba686157	-0.00088646024
204	0x3cd66a67	0.026173783
205	0x3e234aae	0.15946457
206	0x3c93ef9c	0.01805859
207	0xbde2edf1	-0.1108054
208	0xbd8b5e73	-0.06805124
209	0xbd1ce77e	-0.038306706
210	0xba11c1c4	-0.00055601844
211	0x3c903e76	0.017607909
212	0x3d33e278	0.04391715
213	0xbe04cd8e	-0.12969038
214	0x3edf41e3	0.43604955
215	0xbe1a8d89	-0.15093054
216	0xbd87546c	-0.06607899
217	0xbb2d961a	-0.0026487173
218	0xbe1e5d5e	-0.15465304
219	0xb98d484e	-0.00026947487
220	0xbb619876	-0.003442315
221	0xb9562c8d	-0.00020425227
222	0x398946c2	0.00026183395
223	0xbe69ecf0	-0.2284429
224	0xbdb27282	-0.08713247
225	0xbcbc9380	-0.023019552
226	0xbd03e945	-0.032204885
227	0xbd30a89e	-0.043129556
228	0xbed29c1b	-0.41134724
229	0xbba9ed75	-0.005185778
230	0xbe80c1f9	-0.2514799
231	0x3c41ed7c	0.011836406
232	0xbd3f4718	-0.04669866
233	0x3d8a2cdb	0.06746837
234	0xbb888024	-0.004165666
235	0x3d4fa212	0.05069167
236	0x3bc8debf	0.006130069
237	0x3d359be9	0.04433814
238	0xbb467b2e	-0.0030285823
239	0x3b932f88	0.00449175
240	0x3c7fbbb1	0.015608714
241	0x3e2e71b8	0.17035568
242	0x3c5de2cf	0.013542845
243	0xbd05d43e	-0.032673113
244	0xbaf5b09d	-0.0018744651
245	0xbd25c849	-0.04047421
246	0x3af5a288	0.0018740455
247	0x3bce1fe1	0.0062904214
248	0xbd1b36d8	-0.0378941
249	0x3cd4cc85	0.025976429
250	0xbda058e0	-0.078294516
251	0xba4289dd	-0.0007421056
252	0x3d8540db	0.06506511
253	0x3d2365ee	0.03989213
254	0xbc51e0fc	-0.012809988
255	0xbd8dd27e	-0.06924914

fc2.bias f4 [5]
0	0x3bf30b71	0.0074171354
1	0x3b842aca	0.004033421
2	0xbbab073b	-0.005219368
3	0xbb810d5e	-0.003938361
4	0xbc07adc8	-0.008281179
