dqn_agent.pth (torch, 30315 bytes, 4 tensors)

fc1.weight f4 [128, 50]
-0.001058802 0.093536966 -0.15106735 -0.5052696 -0.054469056 0.037923187 0.015336209 0.10398623
-0.26117638 0.037421867 -0.042739384 -0.011169862 -0.13429524 -0.31779397 -0.05829715 0.0052387565
0.0475185 0.101373956 -0.2787424 -0.06158375 0.051366657 0.07542696 0.0016729307 -0.07017425
-0.022794768 0.014964372 0.07863415 -0.118555926 -0.20141658 -0.035802975 -0.05512604 0.068167955
-0.08654272 -0.29025516 -0.098802686 -0.13244973 -0.12837324 0.11235441 -0.035364766 0.06854305
0.007437572 -0.11302161 0.013537019 -0.070907526 -0.10218631 -0.072906956 0.026441928 0.069184825
0.03567422 -0.0051028132 0.090447545 0.15942676 -0.016716938 0.0034978539 0.094821095 -0.08326922
0.03817673 -0.17059024 -0.22458714 -0.07305595 0.063989356 0.063051164 -0.13348292 -0.11561869
0.077636376 -0.017849833 0.009903648 -0.00957231 0.031822708 0.13579197 -0.10898264 -0.06009377
0.02650686 -0.16499868 0.123065904 0.1247841 0.034726437 -0.16125846 0.039114848 -0.08847396
-0.13179822 0.13020226 0.06726858 -0.28817412 0.026470125 -0.023823842 -0.01466783 -0.11358693
-0.09115529 -0.083764374 0.05184385 0.0818843 0.05072085 -0.01503612 -0.1399697 -0.091739595
0.07720072 -0.02204992 -0.34058583 -0.08143318 0.13304205 0.09529224 -0.06166327 -0.035593607
-0.13471772 -0.0025419295 -0.106498614 -0.10908632 -0.007792264 0.021233723 -0.05791633 0.08391626
-0.086060435 0.12832151 0.096916035 -0.119258225 -0.035197556 0.006381303 0.020633534 0.033541515
0.055497736 0.008471161 -0.06900355 0.06691903 -0.1356583 -0.083821386 -0.035401992 -0.06888823
-0.04947391 -0.11591201 -0.030082464 0.030229732 -0.09213118 -0.0072576553 0.1012366 -0.014538154
0.0039304197 -0.012200266 0.028621048 0.08992128 0.13396086 0.089810476 0.13426735 -0.010227829
-0.12704185 -0.067044646 0.09629454 -0.00091676414 -0.07029297 -0.10837285 -0.13234948 -0.11936079
-0.12845555 0.07755633 0.0764582 -0.13639127 0.08821611 -0.15588212 -0.029897928 -0.057342492
-0.027239911 -0.027767055 -0.15508473 -0.122108564 -0.022129543 0.001828894 -0.06424417 0.01880025
-0.12728748 -0.009544134 0.12436868 -0.057684638 0.101129144 0.051216274 -0.12762725 0.08947691
-0.016319245 -0.065915465 0.11308806 -0.11428192 0.015175208 -0.02960921 0.095502704 0.039477006
0.06795372 0.049944222 -0.034008257 -0.057753067 -0.11654272 0.07662834 0.11228545 0.09676401
-0.11232936 0.0063073784 -0.09969275 -0.07785022 -0.082407005 0.037611086 -0.08427486 -0.0030854195
0.0059493333 0.09116347 -0.20474407 -0.097087495 -0.082117945 0.09898554 -0.050836034 0.004045069
0.051139027 0.01790762 -0.0010527372 -0.027956396 -0.10395533 -0.032292813 -0.0009936839 0.018044382
-0.11062051 -0.12239076 0.11419673 -0.11477004 -0.010154933 0.13989948 -0.0003921328 0.004004076
-0.122557156 0.07005702 -0.100731716 -0.041331332 -0.04744918 -0.020942718 0.0015469044 0.11664541
0.036343254 0.1266701 0.08650921 -0.08940856 0.06342806 -0.1076446 -0.05993793 0.041595235
0.046696216 0.10609828 -0.04552578 0.00022639334 0.072807044 -0.13676749 0.1022449 -0.11694449
0.0019491464 -0.024044 -0.074482806 -0.0068215793 -0.11207501 -0.17838642 -0.083961025 -0.052303113
00000000: 80c7 8aba 4f90 bf3d 66b1 1abe 5959 01bf
00000010: f21a 5fbd 5855 1b3d b944 7b3c bcf6 d43d
00000020: e9b8 85be ac47 193d 7e0f 2fbd cc01 37bc
00000030: b184 09be e4b5 a2be fec8 6ebd e0a9 ab3b
00000040: c2a2 423d 269d cf3d 53b7 8ebe 3e3f 7cbd
00000050: d865 523d 7379 9a3d 3d46 db3a 84b7 8fbd
00000060: 18bc babc 202d 753c f10a a13d 73cd f2bd
00000070: 2640 4ebe 24a6 12bd d8cb 61bd a49b 8b3d
00000080: 4f3d b1bd 539c 94be 1059 cabd e7a0 07be
00000090: 4674 03be 121a e63d a5da 10bd 4c60 8c3d
000000a0: e0b6 f33b e077 e7bd 5fca 5d3c f737 91bd
000000b0: 0e47 d1bd 3e50 95bd be9c d83c c6b0 8d3d
000000c0: 221f 123d 8035 a7bb 903c b93d c540 233e
000000d0: f6f1 88bc 403c 653b 9031 c23d 0e89 aabd
000000e0: 345f 1c3d 35af 2ebe 2cfa 65be 5c9e 95bd
000000f0: da0c 833d f820 813d bfaf 08be 7ec9 ecbd
00000100: d2ff 9e3d d039 92bc e942 223c 2ed5 1cbc
00000110: 8758 023d 0d0d 0b3e 4a32 dfbd e324 76bd
00000120: ea24 d93c 6af5 28be fa09 fc3d ce8e ff3d
00000130: 4f3d 0e3d f020 25be e436 203d d631 b5bd
00000140: 1df6 06be be53 053e 1cc4 893d 8f8b 93be
00000150: e0d7 d83c 382a c3bc 5751 70bc 44a0 e8bd
00000160: a0af babd a88c abbd 385a 543d f5b2 a73d
00000170: aac0 4f3d 0f5a 76bc 3854 0fbe f8e1 bbbd
00000180: 691b 9e3d 09a2 b4bc 4461 aebe 70c6 a6bd
00000190: 2d3c 083e 9428 c33d a092 7cbd 9aca 11bd
000001a0: 71f3 09be 8096 26bb f21b dabd a668 dfbd
000001b0: 4056 ffbb 58f2 ad3c ac39 6dbd 4adc ab3d
000001c0: 7440 b0bd b766 033e ea7b c63d a83d f4bd
000001d0: 502b 10bd 401a d13b a807 a93c d462 093d
000001e0: 9851 633d a0ca 0a3c bc51 8dbd d80c 893d
000001f0: 02ea 0abe 8caa abbd ae01 11bd 4615 8dbd
00000200: 28a5 4abd 4763 edbd 806f f6bc 58a4 f73c
00000210: 46af bcbd a0d1 edbb 2255 cf3d 7031 6ebc
00000220: c0ca 803b a0e3 47bc b076 ea3c a628 b83d
00000230: 092d 093e 8eee b73d 617d 093e a092 27bc
00000240: 4217 02be b44e 89bd 1236 c53d 0053 70ba
00000250: c3f5 8fbd 96f2 ddbd 9f86 07be 6e73 f4bd
00000260: da89 03be dad5 9e3d 1e96 9c3d 27aa 0bbe
00000270: a6aa b43d 909f 1fbe 80ec f4bc f6df 6abd
00000280: 3c26 dfbc bc77 e3bc 88ce 1ebe 0e14 fabd
00000290: 0449 b5bc 80b7 ef3a 7392 83bd fb02 9a3c
000002a0: a657 02be 005f 1cbc 02b5 fe3d ba46 6cbd
000002b0: cc1c cf3d 28c8 513d b8b0 02be ac3f b73d
000002c0: f0af 85bc b0fe 86bd b69a e73d a40c eabd
000002d0: 70a1 783c 048f f2bc ec96 c33d a4b2 213d
000002e0: 522b 8b3d 5092 4c3d 3e4c 0bbd 7b8e 6cbd
000002f0: f3ad eebd 52ef 9c3d eaf5 e53d 362c c63d
00000300: ef0c e6bd 20ae ce3b b62b ccbd f06f 9fbd
00000310: 01c5 a8bd 150e 1a3d 4c98 acbd c034 4abb
00000320: a0f2 c23b eab3 ba3d 6ea8 51be cfd5 c6bd
00000330: 742d a8bd eeb8 ca3d 7239 50bd 808c 843b
00000340: 2877 513d 00b3 923c 00fc 89ba d004 e5bc
00000350: 88e6 d4bd 7845 04bd 803e 82ba d0d1 933c
00000360: 028d e2bd 02a8 fabd fadf e93d 8e0c ebbd
00000370: e060 26bc cf41 0f3e 2c97 cdb9 a034 833b
00000380: 3fff fabd 0e7a 8f3d 6e4c cebd 0b4b 29bd
00000390: 125a 42bd 1090 abbc 80c1 ca3a cae3 ee3d
000003a0: aadc 143d cfb5 013e be2b b13d d61b b7bd
000003b0: 92e6 813d c674 dcbd 7a81 75bd c45f 2a3d
000003c0: 8844 3f3d 0e4a d93d 3e79 3abd 0064 6d39
000003d0: dc1b 953d c70c 0cbe c665 d13d 9880 efbd
000003e0: 807a ff3a ecf7 c4bc 718a 98bd 8e87 dfbb
000003f0: 9587 e5bd eeaa 36be c2f3 abbd ca3b 56bd

fc1.bias f4 [128]
-1.1551656 -0.5639295 -0.04147818 -0.00064591976 0.08845018 0.29000118 0.36243284 -1.3411196
-0.35251474 0.75105864 -0.0004606802 -0.08867022 -0.9988817 1.3794993 -0.08566627 -0.0020035051
-0.35661647 -0.053414695 -0.005015241 -0.9715149 -0.09010477 0.325348 -0.0023529483 -0.1493114
1.2559465 1.1836622 -0.0005331966 1.3140446 -0.0013881531 -0.00078206597 0.78375405 -0.0004968493
1.4589907 -0.00057281344 0.5294335 -0.00053346815 -0.012938375 -0.0026161429 -0.13533017 -0.0005544712
-0.0046432326 -0.0049098465 -0.0026671698 -0.10934142 0.08824584 1.7896564 -0.13695891 -0.0030977444
-0.10997246 -0.001776402 0.11254499 -0.00023726703 -0.12299282 0.3323808 -0.0027233323 -0.4527337
-0.002982407 -0.035109155 0.92298037 -0.00095285487 -0.0029983092 -0.0016987199 1.4017565 -0.024196625
-0.402582 -0.0027718153 -0.10539172 -0.065884195 -0.14595973 -0.0024336206 -0.0031618893 -0.004539678
-0.3799629 -1.0147111 -0.0010539476 0.7287763 -0.095875636 -0.0034026555 -0.00081615883 -0.10234365
-0.005529341 0.9910034 -0.000955163 0.110246845 -0.020744018 -0.0442696 -0.12106145 -0.9837995
0.31508425 -0.005431191 1.722278 0.33802718 -0.62525403 -0.0026968878 0.060698535 -1.0598911
-0.71848357 0.05175214 -0.115544684 -0.00635837 -0.0016696623 0.43567055 -0.6434322 -0.49750113
-0.44057703 -0.0010236411 -1.0488427 0.40962362 0.47671783 -0.00087129785 -0.5048764 -0.0032348607
0.20075251 -0.0014402568 0.31742737 -0.0684638 -0.20558049 -0.0021295869 -0.34037858 -0.7456306
-0.097535744 -0.5095023 -0.34969628 -0.056599103 -0.057354055 -0.0030912715 -0.00048993836 -0.004762951
00000000: 77dc 93bf af5d 10bf 06e5 29bd f152 29ba
00000010: 5e25 b53d 097b 943e cc90 b93e cfa9 abbf
00000020: d07c b4be 6145 403f 7387 f1b9 bb98 b5bd
00000030: b6b6 7fbf 6f93 b03f cc71 afbd 3d4d 03bb
00000040: 6f96 b6be 5ec9 5abd e456 a4bb 33b5 78bf
00000050: da88 b8bd 0394 a63e ec33 1abb 16e5 18be
00000060: dbc2 a03f 3e82 973f 38c6 0bba 9d32 a83f
00000070: b0f2 b5ba 8f03 4dba 1ba4 483f fe3e 02ba
00000080: 35c0 ba3f dc28 16ba f488 073f 71d8 0bba
00000090: 7afb 53bc 9873 2bbb fe93 0abe ef59 11ba
000000a0: 4226 98bb c7e2 a0bb afcb 2ebb 65ee dfbd
000000b0: 3cba b43d 7613 e53f f53e 0cbe 8703 4bbb
000000c0: 3e39 e1bd 29d6 e8ba fd7d e63d e2ca 78b9
000000d0: a9e3 fbbd d12d aa3e ef79 32bb b6cc e7be
000000e0: 7d74 43bb 9ece 0fbd 7148 6c3f 02c9 79ba
000000f0: 487f 44bb 95a7 deba c26c b33f 0038 c6bc
00000100: 3a1f cebe 58a7 35bb 9dd7 d7bd 4bee 86bd
00000110: 7876 15be 617d 1fbb b337 4fbb 94c1 94bb
00000120: 7f8a c2be 0ee2 81bf 9d24 8aba 1591 3a3f
00000130: 725a c4bd 16ff 5ebb 7ef3 55ba 8c99 d1bd
00000140: 792f b5bb 66b2 7d3f e763 7aba 19c9 e13d
00000150: 5cef a9bc 0a54 35bd 11ef f7bd 49da 7bbf
00000160: b952 a13e 22f8 b1bb 9b73 dc3f e611 ad3e
00000170: a610 20bf 45be 30bb 079f 783d 83aa 87bf
00000180: 8aee 37bf 0dfa 533d b1a2 ecbd e059 d0bb
00000190: 92d8 daba 3610 df3e f9b7 24bf 78b8 febe
000001a0: 5093 e1be b22b 86ba 7a40 86bf 30ba d13e
000001b0: 5c14 f43e cf67 64ba 943f 01bf f5ff 53bb
000001c0: 1192 4d3e 00c7 bcba d785 a23e c036 8cbd
000001d0: b183 52be 8a90 0bbb 1a46 aebe a6e1 3ebf
000001e0: d2c0 c7bd be6e 02bf 640b b3be 76d4 67bd
000001f0: 16ec 6abd ee96 4abb 356f 00ba 8712 9cbb

fc2.weight f4 [5, 128]
0.07784693 0.05972167 0.031856023 0.15974307 -0.11121661 -0.00019134513 -0.010548744 0.07916218
0.07262278 0.15104198 -0.0015441689 0.08813419 0.072294004 0.11496216 -0.042700678 -0.03291885
0.0092182495 -0.042838152 0.0035503367 0.086711004 0.043630786 0.015763177 -0.03467364 0.0046935617
-0.03398905 -0.0996018 0.087311186 -0.040126994 0.0240521 0.10318358 0.053900283 -0.025726069
-0.035498198 -0.017902233 -0.12586069 -0.00514423 -0.021117264 0.0603833 -0.0047277925 -0.014228394
-0.06038688 -0.019135743 0.04050205 -0.08263592 0.1459964 -0.08888845 -0.05826671 0.01099811
0.057616703 0.0040926477 0.10338486 0.017959142 -0.055665977 -0.08087312 0.07511037 0.03667999
-0.080252804 -0.07169649 -0.19289976 -0.036634684 0.025020447 0.01594187 -0.029191557 -0.07648222
0.10565145 0.06326369 0.07114604 -0.05757601 0.066269346 0.018700207 0.04709535 0.00044206472
0.03991598 0.0473471 -0.050947115 -0.0034639905 -0.032439437 -0.02278986 0.0044223387 -0.019758336
-0.013985202 0.07839742 0.039720427 0.10354127 0.012901092 -0.0005221665 0.03543569 0.07227423
0.0145758195 -0.010656139 0.10315108 0.17182478 0.019846411 -0.020180382 0.004784055 0.063182585
0.038438533 -0.076916344 0.0017847648 -0.006471172 0.061930075 0.016041875 0.0032963022 -0.0028252068
-0.0084878085 -0.013468813 0.06872705 -0.11590828 0.08666516 0.077497885 0.016693141 -0.025629722
-0.029505786 0.043656178 0.08572086 0.019015886 -0.005816383 0.02043396 -0.003157435 -0.12627088
-0.050016824 -0.013821806 -0.0076384298 0.049324878 -0.04570913 0.03360225 0.017981552 -0.00030704433
0.035075504 0.06412732 0.07056571 0.112831995 -0.40940008 0.017443428 0.022498347 0.047911815
0.1042956 0.24719498 0.1285432 0.028991006 0.06680655 0.29335073 -0.014317244 0.07582754
0.008233559 0.014775664 0.13968231 0.044051427 0.05319842 0.086731486 0.04796607 0.029494792
-0.020916922 -0.093279816 0.04131312 -0.0716435 -0.0074701984 -0.010648819 0.08187254 0.068202
-0.07948233 0.022350702 -0.13992542 0.002083985 0.03225375 0.009865955 -0.008480047 0.022568546
0.1265251 -0.00195751 -0.08441474 0.023563199 0.12611672 -0.079726204 0.045636736 -0.023809146
0.023177281 -0.084871136 0.19128062 -0.021226887 0.06185905 -0.053195488 0.03920655 0.038072206
-0.043970667 -0.033222128 -0.15106674 0.11865074 -0.05992336 -0.02637229 -0.05220391 0.0118782595
0.12267947 0.047576066 0.17225978 0.018591374 0.0839454 0.08511436 0.109110944 0.08160931
0.035398416 -0.0020114048 -0.12117374 0.08477014 0.080874436 -0.016106697 0.011333193 0.069856964
0.0036723611 0.101123616 0.029389054 0.16002324 -0.034783415 0.081537224 -0.05374187 0.04169188
-0.064492546 0.03142608 0.08927832 0.17901683 0.027745781 0.23357336 0.049451593 0.049510658
0.017592262 0.031669494 0.064764164 0.071851425 0.09661661 -0.15036069 -0.0026240088 -0.009822507
0.0008951516 0.019637125 0.055471618 -0.048878625 0.079730675 0.12176808 0.026165133 0.070153214
0.10948874 0.0056920326 0.0667867 0.08190828 -0.0055031376 0.12269087 -0.005260327 -0.15162826
-0.05360981 -0.016267896 -0.038292356 -0.008062258 -0.0758594 -0.06414023 -0.067581505 0.011774
00000000: 366e 9f3d b69e 743d 767b 023d b093 233e
00000010: 89c5 e3bd d1a3 48b9 a4d4 2cbc c81f a23d
00000020: 41bb 943d c0aa 1a3e b665 caba b37f b43d
00000030: e10e 943d 4871 eb3d e8e6 2ebd ebd5 06bd
00000040: 2408 173c 0f77 2fbd c4ac 683b 8a95 b13d
00000050: 32b6 323d c721 813c f205 0ebd 73cc 993b
00000060: 1a38 0bbd 07fc cbbd 35d0 b23d 345c 24bd
00000070: e908 c53c ea51 d33d 8bc6 5c3d 7abf d2bc
00000080: 8f66 11bd b4a7 92bc a0e1 00be ee90 a8bb
00000090: 1dfe acbc 7b54 773d 99eb 9abb 361e 69bc
000000a0: 3c58 77bd 90c2 9cbc 7ae5 253d 053d a9bd
000000b0: 1580 153e 260b b6bd 13a9 6ebd 6b31 343c
000000c0: 7eff 6b3d 9e1b 863b 71bb d33d 0d1f 933c
000000d0: 0202 64bd cea0 a5bd 77d3 993d c23d 163d
000000e0: 955b a4bd 9cd5 92bd 8487 45be 400e 16bd
000000f0: aef7 cc3c 8698 823c 2223 efbc b6a2 9cbd
00000100: ca5f d83d 6590 813d 04b5 913d d2d4 6bbd
00000110: 39b8 873d 2d31 993c 0ee7 403d ecc4 e739
00000120: f07e 233d 08ef 413d ecad 50bd 1e04 63bb
00000130: 37df 04bd cdb1 babc 44e9 903b 3cdc a1bc
00000140: 3022 65bc d48e a03d e3b1 223d 720d d43d
00000150: 1a5f 533c 00e2 08ba 0425 113d 8304 943d
00000160: 6bcf 6e3c 1697 2ebc e040 d33d d6f2 2f3e
00000170: f194 a23c 5451 a5bc 90c3 9c3b df65 813d
00000180: b971 1d3d 5186 9dbd c5ee e93a 200c d4bb
00000190: 64aa 7d3d 406a 833c c606 583b 1b27 39bb
000001a0: 7310 0bbc 4cac 5cbc c5c0 8c3d 5261 edbd
000001b0: 817d b13d 36b7 9e3d 0ec0 883c 6cf5 d1bc
000001c0: 1eb6 f1bc d2d0 323d 6b8e af3d 34c7 9b3c
000001d0: 5b97 bebb 1f65 a73c f8ec 4ebb 274d 01be
000001e0: 71de 4cbd db74 62bc cb4b fabb e208 4a3d
000001f0: 7f39 3bbd 83a2 093d 0c4e 933c cbfa a0b9
00000200: 55ab 0f3d 2f55 833d c184 903d 7614 e73d
00000210: e39c d1be 85e5 8e3c 744e b83c 2e3f 443d
00000220: ee98 d53d ae20 7d3e d4a0 033e 8c7e ed3c
00000230: dfd1 883d 1132 963e e092 6abc 784b 9b3d
00000240: 0de6 063c a015 723c e108 0f3e 456f 343d
00000250: 96e6 593d 47a0 b13d 1278 443d 109f f13c
00000260: f759 abbc 7d09 bfbd f237 293d d4b9 92bd
00000270: 91c8 f4bb 6278 2ebc caac a73d 7dad 8b3d
00000280: a2c7 a2bd d218 b73c 9c48 0fbe 7793 083b
00000290: 821c 043d d1a4 213c e5ef 0abc ace1 b83c
000002a0: cc8f 013e 9149 00bb a3e1 acbd 9c07 c13c
000002b0: be24 013e 7e47 a3bd 96ed 3a3d 660b c3bc
000002c0: 48de bd3c ebd0 adbd 11df 433e 02e4 adbc
000002d0: ea5f 7d3d 83e3 59bd 0c97 203d 9af1 1b3d
000002e0: 961a 34bd ed13 08bd 3db1 1abe 29ff f23d
000002f0: 3272 75bd b30a d8bc c4d3 55bd 089d 423c
00000300: 603f fb3d 1fdf 423d de64 303e f04c 983c
00000310: 91eb ab3d 7050 ae3d 8f75 df3d c822 a73d
00000320: eefd 103d c6d1 03bb f029 f8bd f89b ad3d
00000330: 7fa1 a53d 31f2 83bc dbae 393c 2b11 8f3d
00000340: ffab 703b e619 cf3d 50c1 f03c 22dd 233e
00000350: 0e79 0ebd fdfc a63d 6f20 5cbd 1bc5 2a3d
00000360: ab14 84bd a2b8 003d 8dd7 b63d 3050 373e
00000370: 1f4b e33c db2d 6f3e c18d 4a3d b0cb 4a3d
00000380: a61d 903c dfb7 013d 13a3 843d d726 933d
00000390: eede c53d 27f8 19be 90f7 2bbb 95ee 20bc
000003a0: 9ba8 6a3a 09de a03c 3536 633d f434 48bd
000003b0: d649 a33d 8b61 f93d 4358 d63c 7dac 8f3d
000003c0: a23b e03d 3b84 ba3b 77c7 883d 87bf a73d
000003d0: aa53 b4bb 5a45 fb3d d25e acbb 7044 1bbe
000003e0: f695 5bbd 4044 85bc 72d8 1cbd 9017 04bc
000003f0: 2c5c 9bbd f45b 83bd 2c68 8abd bce7 403c

fc2.bias f4 [5]
-0.39462158 -0.74274755 -0.7768171 -0.6409709 -0.92789024
00000000: d70b cabe b424 3ebf 7cdd 46bf ab16 24bf
00000010: 378a 6dbf
