dqn_agent2.pth (torch, 30321 bytes, 4 tensors)

fc1.weight f4 [128, 50]
00000000: cc0f 67bd 2cf4 5dbe 6362 cebe ac84 dbbd
00000010: 89a6 e23d 1512 84bd 3382 7cbc 7bcd b9bd
00000020: e3d1 e9bd 7b53 8bbe b557 043e d4cb 853c
00000030: c1ce 5bbc 01bc ecbb d953 0abe 5c62 bfbd
00000040: c1d7 d6bb 7de7 d4bd c196 debc 0f96 9f3d
00000050: b6df b83d 69bf 47bc b991 e9bd d72b 31be
00000060: deff 3a3e 54db ebbd 4e30 86bb a37e 1c3d
00000070: 4bf9 8bbd 5fad af3d 602f 30bd b12d 203e
00000080: d43b 1d3d b3f8 55be 6d9d 2a3e 74ad b5bd
00000090: 2bd4 d73d bd64 efbd 46ba 47be 0d45 063d
000000a0: 6ce1 cfbc 0ca5 26bd b6c8 653d cc52 bcbd
000000b0: f169 073e 6240 ef3d 54bd fb3d 809e 9d3d
000000c0: 2913 723d 71c5 ebbd 4ca9 a83d 8576 05be
000000d0: 1add 273c dd6a 4d3e c816 dfbe 4cd8 80bd
000000e0: cf41 cabd 8069 8dbd 6f48 3a3e a3e6 5cbe
000000f0: 830f adbd 09bb e83d 7235 47bd 7e65 6f3e
00000100: 2aa9 45bd 6c04 97bc 35a0 ba3d 7622 b6be
00000110: 0bc5 953d 2880 833d ae6e cd3d 6d25 91bc
00000120: f26e 6fbd a702 3d3e ab42 80bc 3cf6 56bd
00000130: b37c 673d b666 483d a1c4 433e 9906 07be
00000140: 6046 cc3c 97a3 21bd 0f56 933c 337c f03c
00000150: 874a 313c 62a0 fe3d 7515 bcbd 8134 a73d
00000160: 256e 233e 927f 09be 6cc1 adbd 809a 513d
00000170: d397 03be 8ebe 043e 34f5 1cbe d372 99bd
00000180: f0c3 05bc 29f2 463d c32c f0bd 9606 693c
00000190: 006a 29bb 2891 a8bd baf9 17bd e6a3 e33d
000001a0: f205 cfbd 65db 84bd 10af d43c 635a ecbd
000001b0: 8836 813c ecdc 193d 6cab 393d accf 5d3d
000001c0: ce63 fe3d 5093 573c 0de5 033e 0bda 84bd
000001d0: a0b1 833c a6da b7bd 0e72 0dbe 983a 983c
000001e0: a0b5 17bc eb92 99bd cf43 85bd 020f dcbd
000001f0: 7874 e63c 7822 ce3d 9b3e 83bd 2ad2 fb3d
00000200: 0ac0 e4bd 8336 ebbd 59e0 0e3e 7815 3d3d
00000210: af2e 9dbd 8e7a 92bd 0035 7ebb 08b6 e7bd
00000220: 84cb a83d 1606 35bd d799 033e 2882 d33d
00000230: 6a92 de3d fcb6 03be 60fb 963d ceba b1bd
00000240: 072e 8abd 00cb b23d 0c71 febd 046b 3dbd
00000250: b4d0 7c3d 05a3 90bd fb93 003e de38 c33d
00000260: 5801 cbbd f866 d63c bb63 0cbe a6c6 a83d
00000270: 3230 10bd 44d1 123d ec1f 5abd 6049 dc3d
00000280: 1805 9c3c 9161 d5bd 28e5 0cbe 6ada 75bd
00000290: 5065 4fbc b447 1bbd 144f c0bc ec6c 95bd
000002a0: c073 4ebb dacf 823d 8aa0 85bd 94cf f3bc
000002b0: 5814 82bc 3a13 d43d 4053 fbbb 3ce0 36bd
000002c0: febe b23d 18a3 e03c e498 6d3d f6da 88bd
000002d0: 4a07 71bd 2813 8e3d 423b a73d f037 373d
000002e0: 40c9 293d 0077 883a ff38 ebbd d8c5 ae3c
000002f0: 98e4 073d 9e82 a23d 08d1 9a3c ab96 0f3e
00000300: 78eb 83bc a0cd b23d 6e1f 00be 9c08 aebc
00000310: b6e5 babd 0068 3239 1702 01be cb7a 88bd
00000320: 86eb e43d 66e0 ea3c 5db3 54bc 6636 863e
00000330: 1fe3 61be 14a5 9cbd 3d24 be3c 12ed c2bd
00000340: e5d7 123e e38a 07bf 08d2 ab3d 21f3 db3c
00000350: 5bc3 41bd 1af6 803e ffe0 3fbd 087d a3bd
00000360: 140e f6bd 5fa2 9fbd d494 2b3e 09bc 28be
00000370: 7893 e73c ee1a 18bd d39e bfbd f6f6 6d3e
00000380: bd17 d1be 4ddd 073e a67f c5bd f46d babd
00000390: d6d8 493e 787c 08be e080 b0bd 98e3 d73d
000003a0: 11e9 88bd b046 273e 9294 e7bd c232 f13d
000003b0: 6007 c6bd 0686 213d 3afc 1e3d 7998 56be
000003c0: d077 be3d 2fad ba3d 9268 23be f073 14bc
000003d0: fec9 23be f02f 48bc ae19 54bd 93d9 4c3d
000003e0: 662e 853c d742 43bd 8055 25bc c315 bebe
000003f0: e374 dcbc 3e12 c93e 2f5f d9bd e1ab 103e
-0.05641155 -0.21675175 -0.40309438 -0.107186645 0.1106692 -0.064487614 -0.015411901 -0.090723954
-0.11416986 -0.27212128 0.12924083 0.016332544 -0.013415993 -0.0072245602 -0.13508548 -0.093449324
-0.0065564816 -0.103957154 -0.027171494 0.07792293 0.090270445 -0.012191632 -0.114047475 -0.1730188
0.18261668 -0.11516443 -0.004095114 0.038206708 -0.06834658 0.0857799 -0.04301393 0.1564243
0.038387135 -0.20895652 0.16661616 -0.08870974 0.10538515 -0.11689136 -0.19504651 0.032780696
-0.025376044 -0.040684745 0.056099616 -0.0919548 0.13224007 0.11682202 0.12291971 0.07696247
0.059100304 -0.11512268 0.08235416 -0.13033493 0.010245586 0.20060296 -0.43572068 -0.06291255
-0.09875833 -0.06904888 0.18191694 -0.21572356 -0.08450224 0.11363799 -0.048634954 0.2337856
-0.04825703 -0.018434726 0.09112588 -0.35573167 0.073129736 0.06420928 0.10030876 -0.017718041
-0.058455415 0.18458043 -0.01565679 -0.05248092 0.056515407 0.048926078 0.19117977 -0.1318611
0.024935901 -0.039462652 0.017985372 0.029356098 0.010820991 0.12432934 -0.0918378 0.08164311
0.15959986 -0.1342757 -0.08484158 0.051172733 -0.12850885 0.12963316 -0.15327913 -0.07492604
-0.008164391 0.048570786 -0.117272876 0.014222762 -0.0025850534 -0.08230811 -0.037103392 0.111152455
-0.10108556 -0.06487159 0.025962383 -0.115406774 0.015773073 0.037564203 0.045329496 0.05415313
0.1242138 0.013157681 0.12880345 -0.06486901 0.01607591 -0.08977251 -0.1381304 0.018582627
-0.009259611 -0.074987255 -0.06507074 -0.1074505 0.028131709 0.10065168 -0.064084254 0.12295945
-0.11169441 -0.11485007 0.1395277 0.046163052 -0.0767492 -0.07152282 -0.0038788915 -0.113140166
0.082419425 -0.044195257 0.12851654 0.1032756 0.1086777 -0.12862772 0.07372165 -0.08678208
-0.0674706 0.087301254 -0.12423906 -0.046244636 0.061722472 -0.070623435 0.1255645 0.09532331
-0.09912366 0.026172146 -0.13709919 0.08241014 -0.035202213 0.035844103 -0.0532531 0.10756183
0.019045398 -0.10419 -0.13759291 -0.06002275 -0.012658432 -0.03791018 -0.023475207 -0.07296166
-0.0031502098 0.06387301 -0.06524761 -0.029762067 -0.015878841 0.1035523 -0.0076698363 -0.04464744
0.08727835 0.02742152 0.058007136 -0.066823885 -0.058844842 0.069372475 0.081655994 0.04473108
0.041451693 0.0010411441 -0.114854805 0.021334574 0.03317699 0.079350695 0.018898502 0.14022319
-0.016103491 0.08730626 -0.1251199 -0.02124434 -0.09125845 0.00017014146 -0.12598453 -0.06664046
0.11177735 0.028671455 -0.012982217 0.26213378 -0.22059296 -0.07648674 0.02321064 -0.09517874
0.1434017 -0.529463 0.0838967 0.026849331 -0.047305446 0.2518776 -0.046845432 -0.07982832
-0.12014404 -0.07794642 0.16755992 -0.1647798 0.02826856 -0.037135057 -0.09356465 0.2323874
-0.40838423 0.13268013 -0.09643488 -0.09103003 0.19711623 -0.13328731 -0.08618331 0.10541457
-0.06685079 0.16335559 -0.113076344 0.117772594 -0.096693754 0.039434455 0.03881476 -0.20956601
0.09300196 0.091150634 -0.15957859 -0.009060845 -0.15995023 -0.01221846 -0.051782303 0.050012182
0.016257476 -0.047671165 -0.010091186 -0.37125978 -0.026911205 0.3927173 -0.10613858 0.14128067

fc1.bias f4 [128]
00000000: 29d5 67be c428 643e 69b2 9abd 2c34 c0bd
00000010: a562 96ba 050e 8a3e 0735 e83e b83d c73e
00000020: 88b1 1cbd cbb1 583f 500e 28be ddbd bd3d
00000030: afd0 0dbe b721 88ba e805 083f 887f d5ba
00000040: 0797 21bb 24aa 0e3f 7550 153f cc84 a0ba
00000050: 941c 5bba b03c c2bd 678f 36ba 730b 46bd
00000060: 8acd c2b8 5c99 003d 83b1 c33d 099c 3bba
00000070: 96d6 ae3e 9ce8 2f3e 63bd cabc 0a6a ebba
00000080: 2085 193e b011 0dba c65d e53e f1a4 323f
00000090: c39b 52bd 7e3b 443e 7426 23ba 5378 c23e
000000a0: 6348 75bc dee9 8aba 50a0 c53e 68df a63c
000000b0: 907c 123f bed0 a4bd 8f63 413f 3b15 933f
000000c0: 1ecd c2bd 6b5c a0bd 2988 9ab9 2bc4 083f
000000d0: ff54 d93d 0c02 f53e e767 1bbd 8763 36be
000000e0: 5fec 003f 1c61 9eba a6bf fc3d 5735 daba
000000f0: 9bd2 243f e547 c3ba 46b9 2e3e 3a3f a63f
00000100: 0463 d5bb 3c08 dd3e 1fdf 413f 097c c23e
00000110: 350d a83e aa12 09be 567d 5fba ec33 e4ba
00000120: 4c30 a1bd 38a3 0d3f bf33 e2bd c09d 5fbd
00000130: 253b 1abb 968e 38bb b7b0 b1be 9cf3 95b9
00000140: 2c41 60bd 91a6 07bd f680 21bd 52e4 373f
00000150: 8429 b83e 1deb b33e fefa dfbd 7023 13bb
00000160: e1b6 75b9 b922 6fba 1c25 5a3f 070f 143e
00000170: 15c9 b03f 1371 993f c5fb 5fbc dc4f 053f
00000180: 44be 56ba cead 36ba a554 cf3c 2e23 1d3e
00000190: 41cb 61ba 3e4a 673d b32f ef3e 2097 3c3d
000001a0: 5364 90ba c6c2 503e 140a babc 9557 e6bd
000001b0: 16fd cdb9 42eb 1cbe 99ac 083f c286 b63e
000001c0: c7f2 beba 7bb4 09be a8d0 263f d2c6 58bc
000001d0: 580d 283f 508f f1b9 73eb 38bb 9367 713f
000001e0: d327 133d 9bce d53f 70a3 56bc bda5 f6bd
000001f0: b0a0 603d 1bd1 12bb a548 8d3d b6e2 77bb
-0.22639908 0.22281176 -0.0755356 -0.09384951 -0.001147349 0.2696382 0.45352957 0.38914275
-0.038255244 0.8464629 -0.1641171 0.09264729 -0.13849138 -0.0010386024 0.5313401 -0.0016288618
-0.002465667 0.55728364 0.5832589 -0.0012246608 -0.00083584455 -0.094842315 -0.00069641176 -0.048350763
-9.2889255e-05 0.031396255 0.09555342 -0.0007156735 0.3414809 0.17178577 -0.02474851 -0.0017960679
0.1499219 -0.0005381359 0.44798106 0.6978293 -0.051418077 0.1916332 -0.00062236865 0.37982425
-0.014970872 -0.0010598262 0.3859887 0.0203702 0.5722132 -0.08047627 0.7554254 1.1490854
-0.09511779 -0.07830127 -0.00029474616 0.5342433 0.10611915 0.47853124 -0.037940886 -0.17811404
0.50360674 -0.0012083384 0.123412415 -0.0016647977 0.6438386 -0.0014898746 0.17062864 1.2988045
-0.0065120477 0.43170345 0.7573108 0.37985256 0.32822576 -0.13386026 -0.00085254514 -0.0017410493
-0.0787054 0.5532718 -0.11045026 -0.0545938 -0.0023533788 -0.002816116 -0.34705135 -0.00028600998
-0.054749653 -0.033117834 -0.039429627 0.71832764 0.35969174 0.35140315 -0.10936545 -0.0022451542
-0.00023433148 -0.00091223005 0.85212874 0.14458857 1.3811365 1.1987633 -0.013670866 0.5207498
-0.0008191804 -0.0006968648 0.025308916 0.15345451 -0.0008613356 0.056467287 0.4671608 0.04604256
-0.0011016227 0.203868 -0.022709884 -0.11247174 -0.0003928921 -0.15324119 0.53388363 0.35649687
-0.0014568203 -0.13447754 0.65162134 -0.013230996 0.6564536 -0.00046073878 -0.002821651 0.94298667
0.03592665 1.6703676 -0.01310049 -0.12043331 0.054840744 -0.0022402469 0.068986215 -0.003782434

fc2.weight f4 [5, 128]
00000000: 6985 263c a367 a73d 6494 8dbc 8ed8 643d
00000010: f99e 8b3c 21e2 13bd 6587 423d c28c 193c
00000020: 888b 4a3d aa2d 87bd a795 ae3d 1007 8b3d
00000030: e479 76bd 80c4 293d cd83 863d b5c0 fa3b
00000040: 4671 253b 4057 d83d 9389 2ebc 3ce7 ef3b
00000050: 4a1e 23bb 4f3c 82bc c964 63bc 0681 e33d
00000060: 98ef 0d3b a28e 533d 4e50 e9bc f8a6 2b3c
00000070: 4c6a 383d 293f 6c3d b3e8 963d 04c4 d8bb
00000080: e1a3 043e 8c49 943c 05f1 833d 2337 bc3e
00000090: 092f 513e 065a 453e 96cf d4bb 5424 d8bc
000000a0: f761 2b3c 09fc f73c 8ee4 7f3d 7955 273d
000000b0: 87f3 103e 646b df3d 2060 26be bd4b 82bd
000000c0: decf 003e 68dc 2f3d 502b 723a f9de 573d
000000d0: 3ab2 ac3d b15b 063d e060 9fb9 5683 803d
000000e0: 0d1c bc3c 39f0 953b b936 943d 7d67 bd3a
000000f0: 9afe ac3d b624 0eba 8044 a9bd de30 fbba
00000100: e78e bb3a deda 383d 40d8 9dbe 5bf9 913d
00000110: c04e 5e3d efa5 d5bb 589c ac3a b53f 163c
00000120: 7539 863c 50e2 983d 72c0 debb f96d 173d
00000130: b46a d63b 61a1 9abb e777 213c 1e35 2a3c
00000140: 6686 35bd abd3 aebd b224 5d3d 353e 373d
00000150: 87d3 893d e559 8b3d 0605 01bd 013a 663b
00000160: 2a7d fdbb 3fa1 0c3e 69cf 753d 8369 8a3d
00000170: c334 6dbd 38e8 d1bd b5f9 d73c 2ee8 143e
00000180: e5c0 a73d 1666 673c 9c8f 87bd 436a 113e
00000190: 0f9a 0b3b a201 4b3c be64 5c3d 910f 513c
000001a0: 8a4d eabb d349 6e3d 0085 333a 0806 09bc
000001b0: ccd1 2a3c a0c2 3a3d 2fe3 58bd 9371 3c3d
000001c0: f952 3bba 52cd b7bc f769 1f3f 5538 b7bc
000001d0: c0a7 99bd 41d9 323c e8e1 92bb 2961 03bf
000001e0: 476a c5bb 74c5 dbbc 406d a8bb 32e7 243d
000001f0: 7702 22bd 8c14 9839 df90 193d 034f 7a3d
00000200: 38f0 4c3d a04d adbd 394c a83d 1a9f 45bd
00000210: 101d 35bb 7f79 44bd e2aa 793d 0c87 ee3a
00000220: 8bfb b73d 8591 6dbd aa9c 93bb fcf0 833d
00000230: 3ca9 d43c 9eaf 623c 10f9 673d 2fce fa3c
00000240: a017 993d b730 c43d 0c62 5cbc dfb4 0a3d
00000250: 5020 233d b50e 7c3b aa6b 573c 8bc2 273d
00000260: 920f e3bb d2b1 253e 2cb9 03bd 689b 153e
00000270: 457a 2d3d d603 233d 5e2a 093e ee6e a83d
00000280: 6dfb 913d c348 923d fb61 98bb 68fb 543e
00000290: 364e 273e e060 373d 84aa 11bc 30d8 1d3d
000002a0: a35f 3e3c 5e90 a23d c1b1 563d fcd6 a53c
000002b0: 6766 673e 7cf3 223b efd9 a7be 31f3 88bd
000002c0: 8c91 143e 2cbd e73c 0e21 ed3c 99bf 0a3d
000002d0: cf91 353d f6f1 803c f22c 64ba 06c1 1ebd
000002e0: 31a1 cd3c b9fb f43c c31c a13d 055f 963c
000002f0: d9ae 353d 9c89 f6bb fd8e dabc 79ab b33b
00000300: 52a2 d33a e1bc 163d bb38 22be 0573 733d
00000310: fe98 ba3d 3c68 96bc c3c2 24bc 0ce4 8f3d
00000320: ebac 87bc cc8b c03d 4f9f a33c be28 eabb
00000330: 59f1 723c db7f 0b3d 248f 2a3c 3257 fb3c
00000340: 033b a63c f6c3 423d 907f cebb befa 513d
00000350: f244 353d d7b2 f83c fad1 39bd c08d 893c
00000360: 1e48 173d 2e64 4a3e 34a0 813d 4e83 713d
00000370: 28ef 79bd c8bb a3bd afe8 3ebd 4b1d 143e
00000380: c4ad 7d3d 6eed f83c f2e6 1b3d 42e3 2c3d
00000390: 4a59 37bc b0cd babd a45f da3d be06 033b
000003a0: 8311 ac3c ec2e b33c ed54 05bd 0b41 863d
000003b0: 654c 03bb b08f b8bc 7526 253d 8436 163c
000003c0: 3d1f ae3c 077f cbbc 19ee cb3e 9611 e4bc
000003d0: a757 a2bd 38bb 323d 6e1a 083c f040 82be
000003e0: f133 303d dc54 5fbc 80ce fbbb 8ca3 ff3c
000003f0: da51 43bd decd b93b 4876 893b bc08 d43d
0.010163643 0.08174064 -0.017282672 0.055870585 0.017043578 -0.036104325 0.047492404 0.009371938
0.049449474 -0.066005066 0.08524638 0.067884564 -0.060174838 0.041447163 0.06568108 0.007652367
0.0025244518 0.105635166 -0.010652917 0.0073212665 -0.002488988 -0.015897898 -0.0138790095 0.11108594
0.0021657702 0.051649697 -0.028480675 0.01047682 0.045023248 0.05767742 0.073686026 -0.0066151638
0.1295314 0.018101476 0.06442455 0.36760816 0.20428099 0.19272622 -0.0064944727 -0.02638451
0.010460368 0.030271547 0.062473826 0.040852997 0.14155398 0.10909155 -0.16247606 -0.06362102
0.12579295 0.042934805 0.00092380214 0.052702878 0.084324315 0.032802287 -0.0003039902 0.0627505
0.022962594 0.004575756 0.07237 0.0014450398 0.08446999 -0.00054223405 -0.082650185 -0.0019164344
0.0014309556 0.045130603 -0.30829048 0.07127639 0.05427432 -0.006520025 0.0013169153 0.009170462
0.01638482 0.07465041 -0.0067978436 0.036970112 0.0065434817 -0.004718945 0.009855247 0.010388641
-0.044317625 -0.08536466 0.053990074 0.04473706 0.06729799 0.068042554 -0.03149893 0.0035129788
-0.007735868 0.13733386 0.060012255 0.06758406 -0.057911646 -0.1024937 0.026364187 0.14541695
0.081910886 0.01412346 -0.06619188 0.14200692 0.0021301543 0.012390526 0.053807013 0.012760059
-0.0071503567 0.058175873 0.00068481266 -0.008363254 0.010425996 0.045595765 -0.052951034 0.04600675
-0.0007145848 -0.022436772 0.62271065 -0.022365728 -0.07502699 0.010916055 -0.0044824965 -0.5132013
-0.006024632 -0.026827551 -0.0051399767 0.040259548 -0.039553132 0.00029007008 0.037491675 0.061110508
0.050033778 -0.084620714 0.08217663 -0.048247434 -0.002763573 -0.04796743 0.060953982 0.0018198206
0.08983525 -0.058000106 -0.00450476 0.064424485 0.025959603 0.013835816 0.05663401 0.030615894
0.07475209 0.09579604 -0.013451111 0.0338639 0.039825737 0.0038460915 0.013148228 0.040957015
-0.0069293464 0.16181114 -0.032159016 0.14610064 0.042352933 0.03979858 0.13395068 0.08224283
0.07128034 0.071427844 -0.004650352 0.20799029 0.16338429 0.04477012 -0.008890752 0.03853625
0.011619481 0.07937692 0.052415613 0.020244114 0.22597657 0.0024864366 -0.32783458 -0.0668701
0.14508647 0.028288446 0.028946426 0.033874128 0.044328507 0.015740376 -0.0008704207 -0.0387583
0.025101276 0.029905187 0.07866814 0.018355856 0.0443562 -0.0075237285 -0.02667951 0.0054830876
0.0016146398 0.036801223 -0.15841953 0.059435863 0.09111212 -0.01836025 -0.0100562 0.07025918
-0.016561946 0.09401664 0.019973425 -0.00714597 0.01482805 0.03405748 0.010410104 0.030681226
0.02029181 0.047550164 -0.0063018277 0.051264517 0.044255204 0.030358715 -0.045366265 0.016791224
0.03693401 0.19764778 0.063293844 0.058963113 -0.061019093 -0.07994801 -0.046608623 0.144643
0.061933294 0.030386653 0.038062043 0.042208917 -0.011190722 -0.09121263 0.10662773 0.0019993032
0.021004444 0.02187296 -0.032551695 0.06555375 -0.0020034548 -0.022529453 0.04031988 0.009168271
0.02125513 -0.024840845 0.39830092 -0.027840417 -0.079268746 0.043635577 0.008307083 -0.25440168
0.043018285 -0.013631072 -0.007684529 0.031205915 -0.04768548 0.0056702932 0.0041950084 0.103532284

fc2.bias f4 [5]
00000000: 93bd 8abe 5d11 8fbe ef05 b5be 2379 adbe
00000010: 847c bfbe
-0.2709776 -0.27942935 -0.3535609 -0.33881482 -0.37399685
