BeerGame_demo-master/dqn_agent3.pth (torch, 30321 bytes, 4 tensors)

fc1.weight f4 [128, 50]
00000000: 5235 1fbd 53b0 253c 5967 f73b ea5d 2bbd
00000010: 2c72 e4bd 0090 5ebc 8181 dfbd 9895 aabd
00000020: cf1c e13c d4c9 6bbd 90a7 a43c a5bc af3c
00000030: 94bd 24bd d260 b53d 0a32 9b3d f3e1 95bd
00000040: 9cdf 11be 1495 11be 23c2 b2bc c755 aabc
00000050: defe 803d 2e63 3d3d 39d7 703d c6e2 813b
00000060: 66dd 1e3d 3ef2 33bd d058 ff3d 608b f33d
00000070: 9499 143c e067 0abe 1836 c03c 20cd 6cbc
00000080: 02f7 543d 26ee a6bd d606 b93d 0c7f ba3d
00000090: 5915 ebbd 7866 adbd 7ba1 b2bd 2b7b cdbc
000000a0: 009c 0fba b099 dc3b adfa c33c 88f4 07be
000000b0: dc8c 83bc c8fd c93c 5b37 2dbd c46b 943d
000000c0: 2859 86bd 562f a1bc 72a4 8b3d 61e6 b93c
000000d0: b700 b0bd f3ca 0cbe 1f6b a1bb ee50 ca3d
000000e0: 92de 19be 9421 49bc 0191 8abd c0a4 9ebc
000000f0: d05b 7f3d b482 25be c38b a73d 0e33 39ba
00000100: ba27 d6bd 687b c53d bd22 a23b dc1a f6bc
00000110: 02fc 9f3d aced 3dbe 908d cebd 55b1 203c
00000120: 21be 533d e3de 80bd 65b1 01be 80e1 7ebb
00000130: a535 09be 75b8 bdbd ddd6 27be 8f74 45be
00000140: 5e9c d1bd dbf2 063d 0ed4 b03c d0c7 153e
00000150: fae3 e3bd 6663 87bd 6984 00be 067d 6dbd
00000160: dd9e f6bc 74c9 95bd 50c4 bebd 0ac3 00bd
00000170: 9fbc a53d 51c9 1fbc eb0d 88bd 0043 a33c
00000180: 0a73 c13d 5457 6abb ce79 71bd 851b 50be
00000190: fc35 593d c30c cfbd c66f cfbd 909a 79bc
000001a0: cf75 01bb a22e c7bd 2a64 da3d aeee 67bd
000001b0: 5476 edbc acd8 11bd d0e2 3d3c d241 e33d
000001c0: b2f7 67bd 00fb 6dba 205b 3ebc 00d7 61bb
000001d0: 693b 063e 3abd 8d3d 38d0 b73c 941d 163d
000001e0: 2558 0a3e 0a25 0cbe 6508 043e 11e0 e0bd
000001f0: c08c aa3c f6a4 7abd e263 e73d 8715 c7bd
00000200: b4dc 8e3d 02e7 cbbd 6a5f 1dbd 801c 9e3b
00000210: 14bc afbd 2e34 13bd c0aa 653d ba6c a5bd
00000220: 38af a7bd 9438 603d 2a21 f33d 6819 d6bc
00000230: a6c7 e5bd aa9f 06be fc0f adbc fcba 10bd
00000240: 8b6d 10be c834 d63c b646 fb3d 6e09 a53d
00000250: 82ec de3d eeba 7abd a6e0 e5bd 5dde 8f3c
00000260: 8ca2 99be 0328 323e 7cf5 94bd 506d 553c
00000270: e1c0 623d 2658 7cbe 772f a8bc 25cd b63c
00000280: 7425 34bd 9566 173e 656d 61bd c553 5b3d
00000290: 1233 473e 385a 903c cc77 a13d 8d2c eabd
000002a0: 4fdb e83d 9642 c43d 8acf 47bd f612 983d
000002b0: a121 61be c76a d53d 95b4 443d 9035 13bc
000002c0: fc4e 89bd 6f9b 09be 9bcc c93d a683 0abe
000002d0: 2ca0 02be 5181 ffbd 6569 f53c a7f9 df3d
000002e0: ec1a 79bd 360f fb3d 846e 31be 1354 51bd
000002f0: e730 4b3c 475b ef3b ade2 debd 5a32 99bd
00000300: ae94 d63d 18cb 373d 2325 49be def1 e03d
00000310: 5f87 8d3d 73a1 0a3c 064e fabd bfef 863d
00000320: 1ac0 c6bd d1f7 24be db27 68be 268a 7fbe
00000330: 21ca 83bd 9437 c83d b3e8 723d a59f 9abd
00000340: 0d77 0b3e 860d 16bf eec3 a73d b822 5abd
00000350: 267e 113d 9b96 8a3d 37c8 90be 400a e03b
00000360: 230a 42be c48d 3ebd f3bb adbb aa4a 13bd
00000370: 102d b03c 1ee6 163d e88e 84be 0350 24bc
00000380: 75d7 fcbe 484b 7abd 1fb4 8a3c b283 59be
00000390: 069d 873d 6559 14bf 5465 993d aebc 71bc
000003a0: 17b7 0b3d 02e4 37bc 6e7c b2be e2fe 5fbd
000003b0: 4b1c 903c a0dd 03be 09e7 dcbd d45a e9bd
000003c0: a258 3bbd 3eeb 28bd d761 b9bd 336b b6bd
000003d0: 71b6 06be 8841 06bd 3d00 40bd ebe9 963d
000003e0: 7960 31be d291 25be 107e 12bd 27c0 ed3d
000003f0: 051c 8abe c891 5c3e 7528 19be 2a4a 17bd
-0.03886921 0.01011284 0.007550162 -0.04183761 -0.11154589 -0.013584137 -0.10913373 -0.08329314
0.027479557 -0.057565525 0.020099431 0.021452257 -0.04021986 0.08856358 0.075779036 -0.07318487
-0.14245456 -0.14217025 -0.021821087 -0.020792855 0.06298612 0.046237163 0.058799002 0.003963801
0.03878536 -0.043932192 0.124681115 0.11891818 0.009069819 -0.13516188 0.023463294 -0.0144532025
0.051993378 -0.08150892 0.09034507 0.091062635 -0.11478681 -0.0846681 -0.08722206 -0.025083145
-0.0005478263 0.006732188 0.023923242 -0.13276875 -0.016058378 0.024657145 -0.04228912 0.07247117
-0.06559974 -0.019675892 0.06818475 0.022692861 -0.08593886 -0.13749294 -0.0049261 0.09878717
-0.1502631 -0.012276072 -0.067659386 -0.019365668 0.06234342 -0.1616314 0.08180954 -0.00070647977
-0.10456796 0.096426785 0.004947989 -0.030042104 0.078117386 -0.18547696 -0.10085595 0.009807904
0.051694993 -0.06292512 -0.12665327 -0.0038891733 -0.1339937 -0.09263698 -0.16390558 -0.19282745
-0.10234903 0.03294645 0.02158549 0.14627004 -0.111274675 -0.066107556 -0.1255051 -0.05798056
-0.030105049 -0.07313815 -0.093147874 -0.031436004 0.08092617 -0.009752587 -0.0664328 0.019929409
0.0944577 -0.0035757618 -0.058954053 -0.20322998 0.05303 -0.10109856 -0.10128741 -0.0152346045
-0.0019754057 -0.097256914 0.10663636 -0.056624107 -0.028987087 -0.035607025 0.011589721 0.110965386
-0.056632705 -0.00090782344 -0.011618406 -0.0034460425 0.131086 0.06920858 0.022438154 0.0366493
0.13510187 -0.13686004 0.12893827 -0.10980237 0.020819068 -0.061192475 0.11298348 -0.09720903
0.069756895 -0.099561706 -0.038421072 0.004825175 -0.08580795 -0.035938434 0.056071043 -0.080773786
-0.08187717 0.054741457 0.1187156 -0.026135162 -0.112197205 -0.13146845 -0.021125786 -0.035334572
-0.14104287 0.026148215 0.122693464 0.08058439 0.10884954 -0.061213426 -0.11224489 0.017562086
-0.30006826 0.17398076 -0.07273385 0.01302655 0.055359725 -0.24643001 -0.020530446 0.022314617
-0.04398103 0.14785226 -0.055035967 0.053546686 0.19453076 0.017621145 0.078841776 -0.11434279
0.11369955 0.09583013 -0.04878191 0.074254915 -0.21985485 0.10420757 0.04802378 -0.008984938
-0.06704518 -0.134382 0.098534785 -0.13526782 -0.12756413 -0.12475837 0.029957483 0.10936289
-0.06081669 0.12258761 -0.17327315 -0.05110557 0.012401796 0.0073045823 -0.10883079 -0.07480307
0.10477577 0.04487142 -0.19643073 0.109836325 0.069105856 0.008461344 -0.12221913 0.06588697
-0.09704609 -0.1611016 -0.22671454 -0.24955043 -0.064350374 0.09776226 0.05930395 -0.07549981
0.13619633 -0.58614385 0.081916675 -0.053255767 0.035520695 0.06767007 -0.28277752 0.0068371594
-0.1894918 -0.046521917 -0.0053019463 -0.035959877 0.021505862 0.03684055 -0.2589028 -0.010028842
-0.4938313 -0.06110695 0.016931592 -0.21241644 0.06621747 -0.57948905 0.0749003 -0.014754457
0.034110155 -0.011223795 -0.34860557 -0.054686435 0.017591616 -0.12877512 -0.10786254 -0.11394277
-0.045738824 -0.04123997 -0.090518646 -0.089071654 -0.13155533 -0.03277734 -0.046875227 0.07368835
-0.17321958 -0.16168907 -0.035764754 0.11608916 -0.26974502 0.21539986 -0.1495684 -0.036935963

fc1.bias f4 [128]
00000000: 4075 1fbd 2366 9bbd 3596 04bc d97d 023d
00000010: 6c2b 1c3f 8b33 173f f212 35ba 633d 113e
00000020: a92f 2d3f 79dd 04bb f1fb 6cba 5362 dcb9
00000030: ae81 7bba c34e b6b9 4d0b aeb9 4083 183f
00000040: 20dd b4bb dd46 1c3d 3dc6 103f ae50 3bbe
00000050: d4bb d0ba 419b 913e 1c98 f93e 8a1c 6eb9
00000060: 2460 14bb 0d7f 4bbf f205 1c3e b86b ea3e
00000070: acb8 5dbf 134e f83e a0b3 aebd 13d0 beba
00000080: 04e9 ab3d 54ea 5c3f e523 afbe bdcb fcbe
00000090: 5eda 25bf e849 0d3e 8102 823e 2a3e 153f
000000a0: 740d 2c3f 3bcd dfb9 ab6d 2ab9 5920 4c3c
000000b0: 1127 24bb a2eb a1be 6db6 253f 5652 3dba
000000c0: 5bd0 30ba bfea 3bbe a510 32bd 5cc1 9fbd
000000d0: 7029 c3be f70f 393b 91be 043f 6946 61bc
000000e0: c229 87bb 404c e93d d059 a33f efd4 2a3d
000000f0: 8ab1 2ebf ace0 923f d9fa 533f 995c 3e3f
00000100: e7c3 e63f 812c c2ba 7e4e 8cbf 94a7 30ba
00000110: c50a 87b9 00bb 383e 857e 043f 2423 d23d
00000120: b943 853f 9585 e93e 06d4 1bbe 34f7 0abe
00000130: e2a7 a13e fe81 90ba 2915 d73e 931a 5abc
00000140: 9a2d 62ba f053 d6bc 5d61 a2ba 37c1 82be
00000150: 0390 bc3d 651b 99be 51a9 8cbd 5411 23bb
00000160: d0e8 363e ecec 793f 3eb7 22be 72b8 15be
00000170: 6527 7c3e 94c3 7eba 418e c3ba d8bf 4dbd
00000180: a417 013f fe17 1bbf 387b 9f3f 8624 85bd
00000190: 4171 9e3e 5521 f9b9 3da2 963e daab 88ba
000001a0: bf38 103f 36ec c93e 2f64 b1be eb94 91ba
000001b0: fc1a 233f 39e5 503f 0488 1dba e468 92ba
000001c0: f099 29ba 212f 47bf 4116 85bd af96 01bb
000001d0: 3224 853c 66a4 d5bd c093 3fb9 0b09 ecb9
000001e0: 0b81 973e 2118 20be 36e1 71bc 7cf5 a53e
000001f0: eee6 e4bc bd44 e23e 053a d2b9 7546 56b9
-0.038930178 -0.075878404 -0.008092453 0.0318583 0.61003757 0.59063023 -0.0006907425 0.14183573
0.6765085 -0.002027361 -0.0009040228 -0.00042034927 -0.0009594214 -0.00034772427 -0.00033196286 0.5957527
-0.005519524 0.038153518 0.5655249 -0.18292496 -0.0015925118 0.28438762 0.48748863 -0.0002270808
-0.0022640312 -0.7949074 0.15236643 0.45785308 -0.8660991 0.48497066 -0.085303545 -0.001455786
0.083940536 0.86295056 -0.34207073 -0.4937419 -0.64786327 0.13797724 0.25392535 0.5829798
0.6720803 -0.00042686783 -0.00016253318 0.012458884 -0.00250477 -0.31625086 0.64731485 -0.0007222047
-0.00067449146 -0.18351267 -0.043472905 -0.07800552 -0.38117552 0.0028238276 0.5185328 -0.013749697
-0.004124851 0.11391497 1.2761784 0.041706976 -0.68239653 1.1474814 0.8280464 0.7436004
1.8028535 -0.0014814289 -1.0961454 -0.0006738838 -0.0002575723 0.18040085 0.51755553 0.10260609
1.0411292 0.45609728 -0.152176 -0.13570863 0.31573397 -0.0011025069 0.4200833 -0.013312
-0.0008628011 -0.026163071 -0.0012388636 -0.25538036 0.092071556 -0.29903713 -0.06868232 -0.0024882155
0.17862248 0.9762714 -0.15890214 -0.14621142 0.24624403 -0.00097184745 -0.0014919714 -0.050231785
0.504267 -0.60583484 1.2459478 -0.06501107 0.3094578 -0.00047517815 0.29420653 -0.0010427192
0.5633659 0.39438027 -0.34646747 -0.0011107003 0.6371305 0.81599766 -0.00060093426 -0.0011170176
-0.0006469777 -0.7780629 -0.06498385 -0.0019773652 0.01625261 -0.10431747 -0.0001827022 -0.00045020165
0.2959064 -0.15634204 -0.014763167 0.32413852 -0.027942147 0.44193068 -0.0004009755 -0.00020434878

fc2.weight f4 [5, 128]
00000000: 8b3d 4ebd 3a77 45bd cf91 7cbd 0b92 02bc
00000010: 2f0f 383e 5a0f fdbd f526 1bbb 20e4 263e
00000020: 75e0 a7bd a297 c73b 7006 a9bb bdb6 e53b
00000030: 0e28 e33a e7f0 11ba 0cf2 3e3c e628 9f3e
00000040: f71c 4a3c 58a0 213c 5f27 353d 4a1d e7bc
00000050: 7ce1 3b3a 5e25 053d 0e08 2e3e 3c25 a2ba
00000060: aa74 093b f17e 8ebc 9e3b 443c bf1f 903e
00000070: f52e 2fbd a755 7b3c 7dc5 72bd 1836 9438
00000080: 54b1 afbb e7f1 803e 8a95 503c 2d42 173c
00000090: 7248 36bd 9c15 313d b26d 02bd 8977 e1bd
000000a0: 7de9 8d3d 5c7b a83c 0b13 12bb 18ce 363c
000000b0: 4da5 13bb 731e 93bc 27a6 583c 8978 0d39
000000c0: 2574 dd3a 207a 0a3b 854c 5dbc 656a 99bd
000000d0: fa03 4c3c c9ab d83b 33a8 c1bd 3f44 843c
000000e0: e15b 9439 d83e 64bd 9399 afbd 93ef 233c
000000f0: 16f3 e839 f1d0 76be 86c7 903d 4c8c 013e
00000100: 7136 373c a651 f63a 5b39 5abd e213 853a
00000110: cc34 94bb fd50 d8bc f63f 553d 0161 373d
00000120: 1a9f acbe 6162 be3d 89a9 a6bc 20aa 19bc
00000130: fb46 c9bd d758 f439 237a 163d 61cd dcbc
00000140: 3b9a ecb9 ad03 983c 8a9b 193d 35ee b5bc
00000150: 257b 8cbc b46c e6bc 85e6 97bd ee4f b13a
00000160: f3b2 dcbc ce8b 34be 4c4b b4bc ca3b 2dbc
00000170: 9876 5dbd 6afd 9e3a ecbb 7637 0856 923b
00000180: 2271 0f3d d140 133c 819e 31bc 83ca 6dbc
00000190: f6d0 e53d 56b0 5c3a 55dc 903d 5a0e cb3a
000001a0: 44f2 183c 9fa8 3cbd eb59 6d3d 2295 05bb
000001b0: 72ad f9bb 08c7 ec3b 3bb0 df3a ac3c a1bb
000001c0: f038 573a 8492 a1bd 2a9b 66bd 3483 bfbb
000001d0: 204b f13c e098 8dbd 1aed 523a ad94 523b
000001e0: 72b8 adbb 8343 80bd 6642 2abc 61b4 92bd
000001f0: eabc a53b a39e 3e3d 5275 873b 0f0d 19ba
00000200: a748 9e3d 512b 333d 9d9a 4ebd 4ae1 103c
00000210: 45dd d53e eddb 23be eed1 ed3c 70e4 e03d
00000220: 2daa 82bd d900 063d 78d1 803c fafa 3ebd
00000230: 63ac a7bc c4e9 babb fa3f 62be 48f7 b93e
00000240: ed96 93bc 9303 3f3c 9bd4 f93c 2c03 adbd
00000250: bcf1 3bbc 1280 233c 27c1 3f3d ffff 383c
00000260: ad8b 833c 745d 423b fd00 0b3c 5b3f a73d
00000270: 7352 76bc 5274 0a3d 59a0 c83b a108 0abd
00000280: 68c2 143c e2d9 613e 65a4 003d f2db 173c
00000290: e9b8 dfbc fbd6 2b3d 685e fbbc 0f24 1cbe
000002a0: fcf4 473c 3b63 3c3e 2ac7 c53c a85a 9ebd
000002b0: b489 7d3a 91e0 02bd eba8 003c 086e 94ba
000002c0: 4d91 47b8 ed0c eebb c696 10bd 608e a83b
000002d0: 2552 01bb 46de 3b3d c37c 5dbd 578b 503c
000002e0: e2c4 4cbb 408e a5bb 2473 b4bd f902 49bc
000002f0: 8d72 adbc e891 8abe 7952 723d 5b00 383c
00000300: 0557 393c 05a2 1fbd 9b1e 9c3d 6648 283c
00000310: 99d3 3fbb 63f1 a5bc 5d3b 853d 44a9 7fbc
00000320: d1eb 3fbe 6ea6 8b3d 1607 ea3b 9f79 01bd
00000330: 1121 a4bd 16e8 463c 213d 9d3d 06de a63c
00000340: 0c8d f83b dc1a 813a c2cd f0bc 3ef3 84bc
00000350: 40c3 61bd 8196 05bd be4b bb3b 623c 2fbd
00000360: d3c0 02bd a75d 14be fa67 243d 16c2 30bc
00000370: 16cc 28be a4ed 3abc 35cb 8ebd 1d70 2cbb
00000380: c88e 7f3d 2397 eabc 909f b9bc 3e3a 0bbc
00000390: 46c4 d53d 0dfe 313b 2c2f 1bbd c4ef 4dbd
000003a0: 9177 ddbc c25f 7ebc 77f3 903c 30b9 a1bb
000003b0: 39ed fa3d 679f a5bc 5f21 d2bc fcb8 d4bd
000003c0: 0b16 2b3c 5458 72bc 20ae ecbc 3959 493d
000003d0: cbe1 71bc 48b9 b4bc 0377 16bd a964 903c
000003e0: 6236 b5bc 88e9 93bd 373f 3cbd e410 f8bc
000003f0: 28b3 573c 2243 e33c b5f0 7fbb 9919 023c
-0.05035166 -0.048209406 -0.06166249 -0.00796939 0.17974542 -0.12356444 -0.0023674343 0.1629796
-0.08197109 0.006091074 -0.005158238 0.0070103095 0.0017330663 -0.0005567208 0.011654388 0.3108589
0.012336007 0.009864889 0.044227 -0.028212208 0.00071670837 0.03250634 0.1699526 -0.0012370716
0.0020974078 -0.017394515 0.0119771045 0.2814922 -0.04276939 0.015340245 -0.05927037 7.067266e-05
-0.0053617153 0.25184557 0.012730965 0.009232086 -0.044502683 0.0432335 -0.031842895 -0.11009128
0.069293 0.020566635 -0.0022289183 0.011157535 -0.0022528947 -0.017958855 0.013223208 0.0001349171
0.0016895576 0.002112992 -0.013507013 -0.07490996 0.01245212 0.0066122753 -0.094559096 0.016145824
0.00028297215 -0.055723995 -0.08574214 0.010005849 0.000444316 -0.24103142 0.07069306 0.12651175
0.011182413 0.0018792644 -0.053277355 0.001015302 -0.0045228954 -0.026405806 0.05206295 0.044770245
-0.33715135 0.09296108 -0.020344513 -0.00937894 -0.098279916 0.00046605497 0.036737572 -0.026953401
-0.00045128338 0.01855644 0.03750185 -0.022208313 -0.017148564 -0.028128006 -0.07417015 0.0013527849
-0.026940798 -0.17631456 -0.02200856 -0.010573337 -0.054068178 0.0012129967 1.4706497e-05 0.004465822
0.03502 0.008987621 -0.010841013 -0.014513615 0.11221497 0.000841861 0.07073275 0.0015491948
0.009335104 -0.046059247 0.05794708 -0.002038308 -0.0076195532 0.007225875 0.001706607 -0.0049205627
0.00082100835 -0.07889274 -0.05630032 -0.005844498 0.029454768 -0.06913924 0.0008046195 0.0032132075
-0.0053015286 -0.06262877 -0.010391807 -0.07163311 0.0050579207 0.046538007 0.0041338587 -0.00058384327
0.07728701 0.04374248 -0.05044042 0.008842776 0.41770378 -0.16001864 0.029030766 0.10981071
-0.06380115 0.032715652 0.015724882 -0.04662607 -0.020467943 -0.0057041366 -0.22094718 0.36321473
-0.018016303 0.011658567 0.030496886 -0.084478706 -0.011471208 0.009979265 0.046815064 0.011291503
0.016057814 0.0029657753 0.008484122 0.08166381 -0.015034306 0.033802338 0.0061226306 -0.033699635
0.009079553 0.22055772 0.03140678 0.009268748 -0.027309852 0.04195307 -0.030684665 -0.1524813
0.012204405 0.18397228 0.02414282 -0.07732135 0.00096717034 -0.031952444 0.007852773 -0.0011324296
-4.758062e-05 -0.0072647245 -0.03530004 0.0051439255 -0.00197328 0.045866273 -0.05407406 0.012728534
-0.003124528 -0.005052358 -0.08811024 -0.012268775 -0.021172786 -0.27064443 0.059160683 0.0112305535
0.011312251 -0.038972873 0.07623025 0.010271167 -0.002927041 -0.020256704 0.06505463 -0.015604321
-0.187423 0.06818853 0.007141958 -0.031610128 -0.080141194 0.012140295 0.07677675 0.02036954
0.0075851735 0.0009849924 -0.029394988 -0.016229268 -0.055117846 -0.032614235 0.0057158163 -0.042782195
-0.031922173 -0.1448885 0.040138222 -0.010788461 -0.16484103 -0.011409197 -0.069723524 -0.0026311942
0.062392026 -0.02863652 -0.022659093 -0.008497773 0.10437827 0.0027159483 -0.037886783 -0.050277486
-0.027034553 -0.01552576 0.017694218 -0.004935406 0.12252278 -0.02021761 -0.025650678 -0.103868455
0.010442267 -0.014791567 -0.028891623 0.049157355 -0.014763306 -0.022061005 -0.036734592 0.017626124
-0.022120658 -0.07222277 -0.045958724 -0.030281492 0.013165273 0.027741972 -0.0039053385 0.007940673

fc2.bias f4 [5]
00000000: afd7 32bd 68d6 40bd 4404 51bd c502 5abd
00000010: c69d 6cbd
-0.043662723 -0.047079474 -0.05102946 -0.053225297 -0.057767652
